2.software/2.Advanced/1.CubeAI工具使用/python_code/sine_calcu.tflite (tflite, 2424 bytes, 5 tensors)

sequential/dense_1/BiasAdd/ReadVariableOp f4 [5]
-0.057195336 -0.08973808 -0.082538374 0.11091005 0.42591408
00000000: a845 6abd 99c8 b7bd e109 a9bd cf24 e33d
00000010: 6911 da3e

sequential/dense/BiasAdd/ReadVariableOp f4 [10]
0.6788299 -1.6453601 3.078549 -3.2433026 -0.245351 -0.5900228 1.1457474 0.49227223
-0.74859756 0.24877347
00000000: ccc7 2d3f 299b d2bf f206 4540 4592 4fc0
00000010: 4b3d 7bbe bc0b 17bf daa7 923f 1b0b fc3e
00000020: 17a4 3fbf 79be 7e3e

sequential/dense/MatMul f4 [10, 1]
0.84936506 0.033018515 -0.022244183 0.02211266 0.04209689 -0.902219 -0.064897366 -0.6960297
0.1462819 -0.08248736
00000000: fd6f 593f 6c3e 073d 6f39 b6bc 9c25 b53c
00000010: ca6d 2c3d d3f7 66bf e9e8 84bd 012f 32bf
00000020: ecca 153e 22ef a8bd

sequential/dense_1/MatMul f4 [5, 10]
-0.575759 -0.31963927 0.59723234 -0.36994934 0.25113344 -0.1487185 -0.50034624 -0.372413
0.47133964 -0.2557038 0.08490832 -0.04291486 -0.30150393 -0.4455928 0.18337105 -0.33165517
0.08257304 0.48921683 -0.6356111 0.04502806 -0.29061127 0.32253382 0.2896 0.18107818
0.40811995 0.4308329 -0.14358431 -0.08569615 0.17076163 -0.09493784 0.19697826 -0.30159357
-0.27039304 0.31298363 -0.09326406 -0.5506717 -0.0251183 0.06445659 -0.46814677 -0.2995128
0.029243622 0.58686 1.4512483 -1.5322622 0.27109307 0.08387474 -0.21725537 -0.28671202
0.9143573 0.07327015
00000000: f164 13bf c2a7 a3be 38e4 183f 006a bdbe
00000010: 9094 803e aa49 18be b116 00bf ebac bebe
00000020: 6e53 f13e 9ceb 82be 6ae4 ad3d 7ec7 2fbd
00000030: b95e 9abe bd24 e4be 9fc5 3b3e b5ce a9be
00000040: 0e1c a93d a17a fa3e 69b7 22bf 586f 383d
00000050: 00cb 94be 2723 a53e 7446 943e 8f6c 393e
00000060: 19f5 d03e 2196 dc3e c407 13be 7781 afbd
00000070: 23dc 2e3e c56e c2bd abb4 493e 796a 9abe
00000080: f570 8abe 643f a03e 3a01 bfbd d2f8 0cbf
00000090: e5c4 cdbc d101 843d efb0 efbe be59 99be
000000a0: 5290 ef3c 753c 163f 81c2 b93f 2b21 c4bf
000000b0: b6cc 8a3e 85c6 ab3d 3178 5ebe ebcb 92be
000000c0: 5213 6a3f a90e 963d

sequential/dense_2/MatMul f4 [1, 5]
0.4017695 0.45985776 0.61833006 -0.5221495 0.5589289
00000000: bbb4 cd3e 7a72 eb3e e14a 1e3f 97ab 05bf
00000010: f715 0f3f
